torch_model.bin (torch, 16229 bytes, 5 tensors)

weight f4 [64, 16]
0	0xbf9bd946	-1.2175682
1	0x3f3d886f	0.74036306
2	0x407f2b5d	3.9870217
3	0xc085266d	-4.1609406
4	0x40963267	4.6936526
5	0x3ea9f65d	0.33195773
6	0xc02ebfe6	-2.7304626
7	0x406fd185	3.747163
8	0xc0683e8e	-3.628818
9	0xbe4f71c7	-0.20258246
10	0x401739f7	2.362913
11	0xbfa1e09f	-1.2646674
12	0x3f72a664	0.9478514
13	0x3fafb969	1.3728458
14	0x40244aa3	2.5670555
15	0x4089b9ec	4.3039455
16	0x4036f7b8	2.8588696
17	0x400a2ad3	2.1588638
18	0x409b6f49	4.8573346
19	0x3febbe07	1.8417367
20	0xc06ca477	-3.6975381
21	0xc046644d	-3.0998719
22	0xbfe9980f	-1.824953
23	0xbe979c74	-0.29611552
24	0x3ed7815f	0.4209089
25	0x40ba03c1	5.8129582
26	0x3e957aed	0.29195347
27	0x408da67d	4.4265733
28	0xc077d074	-3.872098
29	0xbf9f5477	-1.2447652
30	0x4022a8b2	2.5415463
31	0xc0777a45	-3.8668377
32	0xc0b0b042	-5.521516
33	0xbf9e668f	-1.2375048
34	0x40a0a010	5.019539
35	0xbf16147d	-0.5862501
36	0xbdaad197	-0.08340757
37	0x409e3d31	4.9449697
38	0x4028321b	2.6280582
39	0x3fac96f6	1.348357
40	0xbfc76e9d	-1.5580631
41	0x3ddd6697	0.10810583
42	0xc01c0028	-2.4375095
43	0xc083bd42	-4.1168528
44	0x3ff6f353	1.9293007
45	0x3cf6ba6e	0.030118193
46	0x4031d821	2.7788165
47	0xbe22dfab	-0.15905635
48	0xc09db11b	-4.9278693
49	0xbff80cf3	-1.9378952
50	0x409c6cc8	4.888279
51	0xc01ecdda	-2.4813142
52	0x40128e68	2.2899418
53	0x40a269b0	5.0754013
54	0x4026d58f	2.6067846
55	0x3f303170	0.68825436
56	0xbf6cb6b9	-0.9246631
57	0x3de34da6	0.11098795
58	0xc01561d7	-2.3340967
59	0xc07d7666	-3.9603515
60	0x3faf0985	1.367478
61	0x3f44bd49	0.76851326
62	0x40236a4c	2.5533628
63	0x40107560	2.257164
64	0xc0addb2e	-5.4330053
65	0xc00a5455	-2.1613972
66	0xbed3fc0a	-0.41403228
67	0xbf864ac9	-1.0491573
68	0x3f4cb252	0.79959595
69	0x40aca685	5.395327
70	0x4044de73	3.0760772
71	0xbed8ecc8	-0.4236815
72	0x3ec8c82e	0.39215225
73	0xbec2c595	-0.38041368
74	0xc01d409a	-2.457068
75	0xc07bc33d	-3.9337914
76	0x3f9b08d0	1.2112064
77	0xbf010335	-0.5039552
78	0x4029b48a	2.6516442
79	0x3f82bfd5	1.0214792
80	0xc0ac23b3	-5.379358
81	0xbff64e84	-1.9242711
82	0xbeb98834	-0.36236727
83	0xbf0f3312	-0.559373
84	0xbf437650	-0.76352406
85	0x40ac4a79	5.384091
86	0x403c3ac7	2.9410875
87	0x3fdc5eda	1.7216446
88	0xbfb0fb3b	-1.382667
89	0xbef6d034	-0.4820572
90	0xc0101192	-2.2510724
91	0xc06e996d	-3.7281144
92	0x3fd26b81	1.6439058
93	0x3e8c3a7e	0.27388376
94	0x4027867e	2.6175838
95	0xbf175fa3	-0.59130305
96	0xbf24c4b4	-0.64362645
97	0x3dac6621	0.08417917
98	0xbeb7788e	-0.35834163
99	0xc07b727e	-3.928863
100	0x409a6094	4.8242893
101	0x3f38615d	0.72023565
102	0xbe83256b	-0.25614485
103	0x405e3f00	3.4725952
104	0xc06731ab	-3.6124065
105	0x40a6f577	5.217464
106	0x3f7a68b8	0.9781604
107	0xbfaf2111	-1.3681966
108	0x3f835640	1.0260696
109	0xbeb22b77	-0.34798786
110	0x4028e5cc	2.6390257
111	0x4097eef1	4.7479177
112	0x404d0549	3.2034476
113	0x4090abec	4.5209866
114	0x408e1d7a	4.441098
115	0xbfe5f7e3	-1.7966274
116	0x3f8f7552	1.1207678
117	0xc08566b0	-4.168785
118	0xc08ae2df	-4.340194
119	0x3d5ef7f3	0.05443568
120	0x3eb38b16	0.35067052
121	0x407c380d	3.940921
122	0x40ae58b6	5.448329
123	0x408e2462	4.4419413
124	0xc0885f72	-4.261651
125	0x3f0e2c00	0.5553589
126	0x402eadbb	2.7293537
127	0x3fa3c4b5	1.2794405
128	0xc0adb5a5	-5.4284234
129	0xbfed1037	-1.8520573
130	0x409f3fb9	4.9765286
131	0xbf5a7c81	-0.8534623
132	0x3ea2ad32	0.31772763
133	0x40a49c96	5.1441145
134	0x402c0d5d	2.6883156
135	0x4017747f	2.3664854
136	0xc016fc11	-2.359135
137	0x3ef08480	0.4697609
138	0xc01d33ca	-2.456286
139	0xc086f6bb	-4.2176185
140	0x3fc70322	1.5547831
141	0xbc8e924c	-0.017403744
142	0x401b233b	2.4240253
143	0x3da6c813	0.0814363
144	0xc0af9d43	-5.487947
145	0xbfd91e88	-1.6962442
146	0x409ca061	4.8945775
147	0xbf87672a	-1.0578358
148	0x3f80b7c1	1.0056077
149	0x40a89a96	5.2688704
150	0x403c391d	2.940986
151	0x401732b6	2.3624701
152	0xc01831ac	-2.3780317
153	0xbed535e8	-0.4164269
154	0xc0054b35	-2.0827153
155	0xc06ab427	-3.6672456
156	0x3fa0aba4	1.255238
157	0xbec4d673	-0.38444862
158	0x40247dbd	2.5701745
159	0x3f685897	0.9076018
160	0x40160fab	2.3447063
161	0x40111b21	2.2672808
162	0x408458ae	4.135825
163	0xc059582d	-3.3960068
164	0x4082f67c	4.0925884
165	0xc032f989	-2.7964804
166	0xc094fc01	-4.655762
167	0x4035d275	2.8409703
168	0xc038699c	-2.881446
169	0x40b23198	5.568554
170	0x409d227b	4.910459
171	0x4047fc3e	3.1247706
172	0xc00b5941	-2.1773226
173	0x3f384c82	0.7199174
174	0x40219911	2.5249674
175	0x408248a5	4.0713677
176	0xc0a7537f	-5.2289424
177	0xbfdd2e4b	-1.7279752
178	0xbeb4175d	-0.35174075
179	0xc02d26ab	-2.705485
180	0x4011edbc	2.2801352
181	0x409e306a	4.94341
182	0x402877ac	2.6323042
183	0x402b260d	2.6741974
184	0xc01872d0	-2.3820076
185	0x408ff70c	4.498907
186	0xc01ee53a	-2.4827409
187	0xc08055b8	-4.0104637
188	0x3f4b86aa	0.79502356
189	0xbea402a1	-0.32033256
190	0x401aabcd	2.416736
191	0x4015f12e	2.3428454
192	0x4049255e	3.1429057
193	0x404c59c3	3.1929786
194	0x4093b93a	4.6163607
195	0xc01e38d4	-2.4722185
196	0x401b7a7e	2.4293513
197	0xc066abd1	-3.6042368
198	0xc09ab0a9	-4.834065
199	0xbf0637b2	-0.52428734
200	0x3edb0827	0.42779657
201	0x40807761	4.0145726
202	0x40ae86c4	5.453951
203	0x408f5878	4.4795494
204	0xc089066e	-4.282035
205	0xbee6825e	-0.45021337
206	0x402ef869	2.7339118
207	0x4023256b	2.5491588
208	0x404ef232	3.2335324
209	0x4071bc31	3.7771113
210	0x4083c7cd	4.1181397
211	0xc01e412b	-2.4727275
212	0x40339c07	2.8063982
213	0xc0714e3e	-3.7704005
214	0xc099dafb	-4.807981
215	0xbdb6dffe	-0.08929442
216	0x3ea4dfda	0.32202035
217	0x40a98ecc	5.2986813
218	0x4090801b	4.515638
219	0x40934305	4.601931
220	0xc0872c68	-4.2241707
221	0xbe86aef8	-0.26305366
222	0x402b0c5f	2.67263
223	0x403dc848	2.9653492
224	0x4045f5d1	3.0931284
225	0x4042b1d3	3.0421035
226	0x40127b18	2.288763
227	0xc02f34a1	-2.7375872
228	0x403f6799	2.990698
229	0xc081ca8d	-4.0559754
230	0xc0a1302d	-5.037131
231	0xbc946726	-0.018115591
232	0x3d1115ba	0.03542111
233	0x408a9d5d	4.3317094
234	0x40a505ca	5.1569567
235	0x40959185	4.6740136
236	0xc07eeb4b	-3.9831111
237	0xbd40c3a3	-0.047061574
238	0x4029152a	2.6419168
239	0x403dac2d	2.9636338
240	0xc0adacc9	-5.427342
241	0xbfa53be5	-1.2908903
242	0xbea0af17	-0.31383583
243	0xc01ab667	-2.417383
244	0x3fb31614	1.3991113
245	0x40a89235	5.2678475
246	0x403b7146	2.9287887
247	0x3fe82cfc	1.8138728
248	0xc010304c	-2.2529478
249	0xbdee5a94	-0.1163837
250	0xc01182ae	-2.273601
251	0xc0671bef	-3.61108
252	0x3f9be6a2	1.2179759
253	0xbe2bbf5f	-0.16772221
254	0x40221a2a	2.532847
255	0x3fd38ccc	1.6527343

bias f4 [64]
0	0x40b032e0	5.5062103
1	0x40b03b3c	5.5072308
2	0x40ab709d	5.3574967
3	0x40b87e21	5.7653966
4	0x40b92562	5.7858133
5	0x40b3ab75	5.61468
6	0x40baa9f1	5.833245
7	0x40b3fc4c	5.624548
8	0x40b1ed59	5.560223
9	0x40b71543	5.7213454
10	0x40b059bc	5.510954
11	0x40acd906	5.401492
12	0x40b2a79b	5.5829597
13	0x40b8e849	5.778355
14	0x40b25699	5.573071
15	0x40b22c22	5.5678873
16	0x40abcfaa	5.3690996
17	0x40b829b1	5.7550893
18	0x40b1c95e	5.555831
19	0x40b648d6	5.696391
20	0x40ac6720	5.3875885
21	0x40a8e0c9	5.2774396
22	0x40b12ad0	5.536476
23	0x40aeeb2a	5.4662066
24	0x40b0740c	5.514166
25	0x40ae26e1	5.442246
26	0x40ad0d98	5.4079094
27	0x40ab39f7	5.350826
28	0x40b137e3	5.538072
29	0x40b7e664	5.746874
30	0x40a95b92	5.292428
31	0x40a9b3ba	5.3031893
32	0x40b486d6	5.6414595
33	0x40b0e981	5.528504
34	0x40a8f92d	5.280417
35	0x40afb022	5.4902506
36	0x40af5a2b	5.479757
37	0x40b0e1a4	5.527544
38	0x40aa5d31	5.323876
39	0x40b5869c	5.672682
40	0x40a81e2e	5.253684
41	0x40b8a11d	5.769667
42	0x40b37d78	5.609066
43	0x40a793aa	5.2367754
44	0x40ac64d2	5.387307
45	0x40b7a14a	5.7384386
46	0x40ac350a	5.3814745
47	0x40aa5ac0	5.323578
48	0x40b3f510	5.623665
49	0x40b509dd	5.657454
50	0x40b91a0a	5.7844286
51	0x40b60dc8	5.6891823
52	0x40b07e41	5.515412
53	0x40a9d203	5.306886
54	0x40b238c1	5.569428
55	0x40bd64c3	5.91855
56	0x40b1f62d	5.5613008
57	0x40b6e576	5.7155104
58	0x40aa53e7	5.322742
59	0x40b95274	5.791315
60	0x40b67202	5.701417
61	0x40b1eb18	5.559948
62	0x40b4a44c	5.645056
63	0x40b1f423	5.561052

weight f4 [32, 64]
0	0x40aa5383	5.3226943
1	0x40a25a81	5.073548
2	0x40aa71ec	5.3264065
3	0x40a5fc44	5.187044
4	0x40aca5ac	5.3952236
5	0x40a5a06a	5.175832
6	0x40a89898	5.268627
7	0x40a92731	5.286034
8	0x40a54d42	5.165681
9	0x40ab8e53	5.3611236
10	0x40afb629	5.4909863
11	0x40ab9de2	5.363023
12	0x40ab5cfe	5.3551016
13	0x40a9d56a	5.3073015
14	0x40a8c960	5.274582
15	0x40acb547	5.3971286
16	0x40a5cb0b	5.1810355
17	0x40a7c9dc	5.243391
18	0x40ac4bef	5.384269
19	0x40ac669b	5.387525
20	0x40adc593	5.430368
21	0x40a575c2	5.1706247
22	0x40a81f0b	5.2537894
23	0x40ab75b6	5.358119
24	0x40a8a800	5.270508
25	0x40a5c044	5.17972
26	0x40aa0f7d	5.3143907
27	0x40a1dbc0	5.058075
28	0x40a704c5	5.219332
29	0x409e831c	4.9535046
30	0x40a11b8a	5.0346117
31	0x40a36c64	5.1069813
32	0x40a559c9	5.16721
33	0x40a752a7	5.2288394
34	0x40a0d911	5.0264974
35	0x40a8ec8a	5.2788744
36	0x40a80c6f	5.251518
37	0x40aba9f1	5.364495
38	0x40a56cc2	5.169526
39	0x409e5683	4.9480605
40	0x409fb5f8	4.990963
41	0x40a8ee25	5.2790704
42	0x40a2f636	5.092555
43	0x40aa957d	5.330748
44	0x40a7233d	5.2230515
45	0x40ad158d	5.4088807
46	0x40aa3318	5.318737
47	0x40aa1c4d	5.3159547
48	0x409c96c5	4.8934045
49	0x40a044c3	5.008394
50	0x40ae0ad9	5.438824
51	0x40a293aa	5.0805254
52	0x40a669c2	5.20041
53	0x40a31da8	5.09737
54	0x40a91362	5.283616
55	0x40a9caa2	5.3059855
56	0x409be737	4.8719745
57	0x40afb6b8	5.4910545
58	0x40a8f837	5.2802997
59	0x40a7d5e4	5.2448597
60	0x40a597ea	5.174794
61	0x40a53d29	5.163716
62	0x40a71d12	5.2222986
63	0x40abe966	5.372241
64	0xbeb7d20a	-0.35902435
65	0x3dede8fe	0.11616705
66	0xbe53748c	-0.20649928
67	0xbe8b74f2	-0.2723766
68	0x3d4c0341	0.04980779
69	0xbd99fc4e	-0.075188264
70	0xbd442b39	-0.047892783
71	0xbd286647	-0.041113164
72	0x3d062ed0	0.032759488
73	0x3d4536b4	0.048147872
74	0xbe80b4e8	-0.2513802
75	0x3af1e6c5	0.0018455615
76	0xbcdad5d0	-0.026713282
77	0x3d114411	0.035465304
78	0x3c7188eb	0.014742116
79	0xbe45b86d	-0.19308634
80	0xbdb3937a	-0.08768363
81	0x3e10ea5e	0.14151904
82	0xbdb31ca3	-0.087456964
83	0xbe134eae	-0.14385483
84	0x3d5731f4	0.052537873
85	0x3d67579a	0.056480028
86	0xbc8e0fff	-0.017341612
87	0xbe5f0295	-0.21778329
88	0xbbaad011	-0.0052127917
89	0xbd8d639b	-0.06903764
90	0x3e040049	0.12890734
91	0x3e1b07a8	0.1513964
92	0xbcfcc96d	-0.030857766
93	0xbd62aa0d	-0.055337954
94	0x3e012845	0.12613018
95	0x3cd38b20	0.025823176
96	0xbcae3af9	-0.021268355
97	0x3e059809	0.13046278
98	0xbdd3d014	-0.10342422
99	0xbe2a59ad	-0.16635771
100	0xbe5776e8	-0.21041453
101	0xbe62d3cc	-0.22151107
102	0xbe2da008	-0.16955578
103	0x3cacccc4	0.021093734
104	0x3e146b9e	0.14494178
105	0xbe41fbb0	-0.18943667
106	0xbce78e46	-0.028266083
107	0x3dcc492e	0.099748954
108	0x3d8aea53	0.06782975
109	0x3d7dcbaf	0.061961826
110	0xbdaef044	-0.08541921
111	0xbd2ef925	-0.04271807
112	0x3e611473	0.21980457
113	0x3c1dc965	0.009630536
114	0xbe01e3c8	-0.12684548
115	0x3d422f81	0.047408585
116	0xbdf7f922	-0.12108065
117	0xbcd78fd5	-0.026313702
118	0x3d1ea73e	0.038733713
119	0xbdd9e048	-0.106384814
120	0x3dee3637	0.116314344
121	0xbd2df400	-0.042469025
122	0x3cc9fc27	0.024656368
123	0xbe44be65	-0.19213255
124	0x3aaf99cc	0.0013397275
125	0xbd1d4b66	-0.038401984
126	0xbe0f829b	-0.14014666
127	0x3daba9e2	0.08382012
128	0x40a66863	5.2002425
129	0x409bbd58	4.8668633
130	0x40ae6df8	5.450924
131	0x40abb029	5.365254
132	0x40a8a15f	5.2696986
133	0x40a7793e	5.23355
134	0x40a946ff	5.2899165
135	0x40a9cc4a	5.3061876
136	0x40ab6167	5.35564
137	0x40ad9c62	5.4253397
138	0x40ade7bb	5.4345374
139	0x40aaf2f6	5.3421583
140	0x40a91b4a	5.284581
141	0x40a91353	5.283609
142	0x40aad88d	5.3389344
143	0x40ac0b0a	5.3763475
144	0x40a4ea52	5.1536036
145	0x40ad5a16	5.417247
146	0x40ac61d0	5.38694
147	0x40b0cdc2	5.525117
148	0x40af1ed7	5.4725146
149	0x40a6ee2c	5.2165737
150	0x40a8194f	5.2530894
151	0x40a7d441	5.24466
152	0x40a1c37c	5.055113
153	0x40a8478a	5.258733
154	0x40ad113a	5.408353
155	0x40a78231	5.2346425
156	0x40ad2a40	5.4114075
157	0x409e257b	4.9420753
158	0x409cc685	4.8992333
159	0x40a4d84a	5.1514025
160	0x40a73835	5.225611
161	0x40a2d23f	5.088165
162	0x40a68184	5.20331
163	0x40ac63d3	5.3871856
164	0x40ae01c5	5.437716
165	0x40a9f470	5.3110886
166	0x40a89d12	5.2691736
167	0x40a0a04c	5.0195675
168	0x40a2d9b0	5.089073
169	0x40afc193	5.4923797
170	0x40a1394d	5.0382447
171	0x40a91b86	5.28461
172	0x40a386be	5.110198
173	0x40ae103e	5.4394827
174	0x40ade10e	5.4337225
175	0x40ab6742	5.3563547
176	0x40a134b7	5.037685
177	0x40a114b4	5.033777
178	0x40ac9ba7	5.3940005
179	0x40a71fac	5.222616
180	0x40ab955c	5.3619823
181	0x40a419cb	5.1281486
182	0x40a76d3b	5.232084
183	0x40a7208d	5.2227235
184	0x40a00ff1	5.001946
185	0x40af9d9c	5.4879894
186	0x40aafc51	5.3433003
187	0x40ad0113	5.406381
188	0x40a6a19c	5.2072277
189	0x40aa2418	5.316906
190	0x40a8cb8e	5.274848
191	0x40ab1e05	5.3474145
192	0x40a6cb69	5.2123303
193	0x409f6913	4.9815764
194	0x40a580f9	5.1719937
195	0x40a4b8e8	5.1475716
196	0x40ab4519	5.352185
197	0x40a659c5	5.198458
198	0x40a79619	5.2370725
199	0x40ab5a20	5.3547516
200	0x40a88b1a	5.26698
201	0x40a914d1	5.283791
202	0x40abce72	5.368951
203	0x40a77598	5.2331047
204	0x40ad16e2	5.4090433
205	0x40aac079	5.335995
206	0x40aa384b	5.3193717
207	0x40aabcca	5.3355455
208	0x40a65ffe	5.199218
209	0x40a8b6f9	5.2723355
210	0x40a8a974	5.270685
211	0x40ae0dcf	5.4391856
212	0x40aaf44e	5.3423223
213	0x40a23492	5.0689173
214	0x40a37a40	5.108673
215	0x40a8e90d	5.2784486
216	0x40a2d30d	5.088263
217	0x40a99e64	5.300585
218	0x40aaf5ca	5.3425035
219	0x409f7667	4.9832034
220	0x40a793ad	5.236777
221	0x409b3c01	4.8510747
222	0x409a949f	4.830642
223	0x40a20dc1	5.064179
224	0x40a8f11f	5.2794337
225	0x40a3f15f	5.1232142
226	0x409d4841	4.91507
227	0x40acc41a	5.398938
228	0x40a8b587	5.272159
229	0x40ab8527	5.360004
230	0x40a4a4da	5.1451235
231	0x40a43def	5.1325603
232	0x40a4ed6f	5.1539836
233	0x40a8bd5d	5.2731156
234	0x40a18f14	5.0487156
235	0x40a582af	5.1722026
236	0x40a1ee30	5.0603256
237	0x40ad9559	5.424481
238	0x40a8a456	5.2700605
239	0x40a48608	5.141361
240	0x409f9b3f	4.987701
241	0x40a41271	5.127251
242	0x40a85ec9	5.2615705
243	0x40a68c84	5.204653
244	0x40a39caf	5.1128764
245	0x409d4ec7	4.9158664
246	0x40a17e6a	5.0466814
247	0x40a2a6f9	5.0828824
248	0x40a18f42	5.0487375
249	0x40aa6d78	5.325863
250	0x40a8da16	5.276622
251	0x40ab6ef5	5.3572946
252	0x40a0b71c	5.022352
253	0x40a842ca	5.258153
254	0x40a58c11	5.173348
255	0x40a83e0c	5.257574

bias f4 [32]
0	0x40acb489	5.397038
1	0xbd69f1f4	-0.05711551
2	0x40b022de	5.5042562
3	0x40aede16	5.46461
4	0x3d198ad2	0.037485905
5	0xbe0a946c	-0.13533181
6	0x40afd25d	5.494429
7	0x40ad646a	5.4185076
8	0xbe0a34b8	-0.13496673
9	0xbd3e9ff5	-0.046539266
10	0x40ad6cf0	5.419548
11	0x40b1977d	5.549742
12	0x40abef7d	5.3729844
13	0x40b13352	5.5375147
14	0x40b1f18f	5.560737
15	0x40b1bfe7	5.5546756
16	0xbe05ced1	-0.13067175
17	0xbdd6ec17	-0.10494249
18	0xbde3c8f0	-0.1112231
19	0x40ab916b	5.361501
20	0x40ae10ed	5.439566
21	0xbc9fe1d7	-0.019516869
22	0x3d117294	0.03550966
23	0xbc45cab0	-0.01207225
24	0x40ad03fb	5.406736
25	0x40abc3bb	5.367643
26	0x40acc352	5.398843
27	0x40acbec7	5.3982882
28	0x40af031d	5.46913
29	0x40b0c1e7	5.5236697
30	0x40ada07e	5.4258413
31	0x40aa4651	5.3210835

weight f4 [1, 32]
0	0x40b7ac33	5.7397704
1	0xbea6f92a	-0.32611972
2	0x40b59228	5.6740913
3	0x40ba5874	5.8232975
4	0x3c1cf050	0.009578779
5	0xbe0bbb89	-0.13645758
6	0x40b89d05	5.7691674
7	0x40bb1749	5.8465924
8	0xbc5e9021	-0.013584168
9	0xbe02d50d	-0.12776585
10	0x40b75659	5.7292905
11	0x40b82172	5.7540827
12	0x40b8ea2a	5.7785845
13	0x40b9d15d	5.806807
14	0x40ba4b09	5.8216596
15	0x40b64fd5	5.697245
16	0xbc99dccd	-0.018782044
17	0xbdc7d66f	-0.09757697
18	0xbd701fb0	-0.05862397
19	0x40b48d2e	5.642234
20	0x40b887ef	5.7665935
21	0xbdfe0252	-0.12402786
22	0xbd8cbcbd	-0.068719365
23	0xbd7c2e22	-0.061567433
24	0x40b5fa9d	5.6868424
25	0x40bb8382	5.859803
26	0x40b4e4a2	5.6529093
27	0x40ba9889	5.83112
28	0x40bab44e	5.83451
29	0x40b870a5	5.7637506
30	0x40bafce4	5.8433704
31	0x40bb6025	5.8554864
